model/unhidra_model_v3.pt (torch, 219762 bytes, 3 tensors)

embed.weight f4 [106, 256]
-0.28206608 -0.0894273 -0.75035477 0.39450568 -0.6881457 -0.31462163 -1.419198 -1.1355127
-1.0594577 0.38791 -0.26171884 0.27083534 0.71723276 -1.3465874 0.83551514 1.1042814
1.6074786 -0.26102594 1.0618482 1.5045444 -0.2945624 -0.44230074 -1.4946244 1.4975837
-0.6693246 -1.7303683 -0.71266943 -2.3508084 0.21628517 0.1261198 -0.80257726 -1.2511249
0.28045353 -0.49441016 -1.2158804 0.22151904 0.47602352 -0.9495836 -0.29157248 0.88464683
-0.8347453 0.46163663 1.3719765 0.09614482 0.2997662 0.79268855 0.036834538 -0.86334157
1.3402101 1.751379 0.80130756 -0.13606937 1.6693116 0.83789825 -0.71065193 -0.35780147
-1.255072 -0.011222516 1.1544504 -0.532855 0.0123199215 -1.2320848 1.0131434 0.35475296
-1.1771148 1.419389 -0.8127865 0.28321812 -0.19740416 -0.4053468 -0.40942404 1.5751672
1.395206 1.0298605 0.6689614 -0.7378125 -0.22444086 -0.6969081 0.34432727 -0.18917036
0.7289334 0.7342065 0.25065273 1.5955917 -0.084687516 1.4650329 0.4128309 -0.017740376
-1.805054 0.67431533 0.8650613 -1.4625827 0.24518545 0.12615187 0.58557934 0.118128434
-0.45468774 0.9449675 0.3747833 0.83073777 0.5321132 -1.0866724 1.3521676 1.4352156
1.1863221 1.3138845 0.33391494 -1.9694324 2.2455297 0.019308059 0.15983748 -0.19557054
-1.1244484 0.8944124 0.6319073 -0.481847 0.57602096 -1.1439408 0.9937969 -0.807203
0.6491455 0.79499537 1.7754104 0.29443228 0.0015981549 -0.024246503 1.9878817 0.6339059
0.5354451 0.086813495 -0.91200984 -1.6934612 -0.03961642 1.0108881 0.6937832 -1.5186176
-0.57780635 1.6886977 -1.2602793 0.4193704 0.23489612 -1.5145383 0.10988181 -0.81177384
0.9970129 0.16776942 1.0756311 0.65516484 -0.7557556 -0.1668264 0.66233057 -1.0214702
0.328758 0.113334596 0.9564742 0.3758794 -1.6093639 -0.22610335 -0.4350448 -0.35699314
-0.80792475 0.700922 0.449639 0.6014982 0.7846664 2.9569883 -0.38062704 1.1694201
1.3074151 -0.7969854 0.89663804 1.9288692 -1.1157148 -0.36357522 1.7433416 1.1520233
1.1303658 -0.082018815 -0.06756461 0.10207283 -0.045465738 1.327263 0.34723336 -0.5427954
0.629469 -0.079268366 0.35662204 -0.4229675 -0.7235298 -0.99530846 -1.1221145 0.3047495
1.3762202 -0.03658456 1.5315402 0.93965244 -0.6487952 -0.39050338 0.31569546 1.3107451
1.2314236 0.78137285 -0.35267305 -0.24956429 0.73477495 1.2313446 -1.1875807 -0.2344514
1.4829047 -0.83457935 0.9681208 1.1840103 -0.6723429 0.003538681 0.6273656 0.17733409
0.815295 0.16127378 -0.024630234 2.7232604 0.90463996 -0.6684724 -0.0058037727 0.3412825
-0.5706119 0.7211304 -0.5288563 -0.66416883 -0.35411564 0.68394786 -1.2233117 1.2367095
0.2958031 -1.3935403 1.171057 2.3819592 -1.1158942 2.4984028 -1.5387625 0.24859521
-1.081305 -1.5411402 0.34604537 0.2667171 0.46702698 -1.2500446 1.0891505 0.90852505
-0.8484924 -0.3839387 0.99182886 0.31784347 0.62609905 -0.5448105 -0.6756357 -1.3203802
00000000: f76a 90be a925 b7bd 4017 40bf a6fc c93e
00000010: 512a 30bf 1616 a1be 48a8 b5bf 7b58 91bf
00000020: 4f9c 87bf 249c c63e 0300 86be eeaa 8a3e
00000030: 919c 373f fa5c acbf 52e4 553f 1859 8d3f
00000040: dcc1 cd3f 31a5 85be a4ea 873f e994 c03f
00000050: e2d0 96be 3e75 e2be da4f bfbf d3b0 bf3f
00000060: db58 2bbf b57c ddbf 8171 36bf a573 16c0
00000070: dc79 5d3e 8d25 013e b475 4dbf dc24 a0bf
00000080: 9b97 8f3e 5423 fdbe f8a1 9bbf e3d5 623e
00000090: 5bb9 f33e e917 73bf fd48 95be 3778 623f
000000a0: deb1 55bf a35b ec3e ed9c af3f 93e7 c43d
000000b0: f57a 993e a3ed 4a3f d0df 163d f403 5dbf
000000c0: 018c ab3f 302d e03f 7e22 4d3f c555 0bbe
000000d0: 01ac d53f 8080 563f 49ed 35bf c131 b7be
000000e0: 33a6 a0bf a5de 37bc 08c5 933f 2f69 08bf
000000f0: 7fd9 493c f4b4 9dbf afae 813f 2ea2 b53e
00000100: b3ab 96bf 8aae b53f c712 50bf f701 913e
00000110: 5124 4abe 9e89 cfbe 07a0 d1be 149f c93f
00000120: 1c96 b23f 78d2 833f 0e41 2b3f 48e1 3cbf
00000130: d3d3 65be 9268 32bf aa4b b03e e0b5 41be
00000140: 619b 3a3f f5f4 3b3f 8e55 803e 593c cc3f
00000150: a670 adbd 3386 bb3f 925e d33e 4454 91bc
00000160: 020c e7bf ee9f 2c3f a874 5d3f e935 bbbf
00000170: e511 7b3e f52d 013e 87e8 153f 52ed f13d
00000180: d5cc e8be 64e9 713f 99e3 bf3e 3bab 543f
00000190: 9238 083f 1518 8bbf d413 ad3f 25b5 b73f
000001a0: 67d9 973f 5e2d a83f e6f6 aa3e 5c16 fcbf
000001b0: c2b6 0f40 ef2b 9e3c 70ac 233e a543 48be
000001c0: eded 8fbf 36f8 643f adc4 213f a6b4 f6be
000001d0: 1c76 133f a76c 92bf 7969 7e3f dba4 4ebf
000001e0: 662e 263f d184 4b3f a640 e33f d4bf 963e
000001f0: 2e79 d13a 9aa0 c6bc e872 fe3f a847 223f
00000200: ee12 093f 46cb b13d 7a79 69bf 56c3 d8bf
00000210: d444 22bd c864 813f c79b 313f 1062 c2bf
00000220: 1eeb 13bf 3f27 d83f d550 a1bf b8b7 d63e
00000230: 9c88 703e 64dc c1bf b709 e13d 69d0 4fbf
00000240: 3d3c 7f3f bfcb 2b3e 48ae 893f e2b8 273f
00000250: 3379 41bf 8ad4 2abe 7f8e 293f 89bf 82bf
00000260: f852 a83e f81b e83d 7edb 743f 4473 c03e
00000270: a3ff cdbf a387 67be 31be debe cec7 b6be
00000280: 28d4 4ebf a06f 333f 1537 e63e c9fb 193f
00000290: e6df 483f 4c3f 3d40 8ce1 c2be 8faf 953f
000002a0: 6159 a73f 3c07 4cbf 128a 653f 30e5 f63f
000002b0: becf 8ebf 8826 babe d125 df3f 8075 933f
000002c0: d4af 903f 7bf9 a7bd 505f 8abd 8f0b d13d
000002d0: 483a 3abd c1e3 a93f 92c8 b13e a4f4 0abf
000002e0: e124 213f 7457 a2bd 2a97 b63e 328f d8be
000002f0: 4039 39bf 89cc 7ebf 73a1 8fbf 2008 9c3e
00000300: fc27 b03f b1d9 15bd 8209 c43f 108d 703f
00000310: 7117 26bf 0ff0 c7be d6a2 a13e 7fc6 a73f
00000320: 4a9f 9d3f 0d08 483f 9091 b4be c88d 7fbe
00000330: 361a 3c3f b39c 9d3f a502 98bf 0714 70be
00000340: d2cf bd3f fea6 55bf c4d6 773f a68d 973f
00000350: aa1e 2cbf 37e9 673b 089b 203f 1197 353e
00000360: 2cb7 503f f424 253e 58c5 c9bc e649 2e40
00000370: 7c96 673f 0221 2bbf 932d bebb 94bc ae3e
00000380: 9f13 12bf 009c 383f 2063 07bf f806 2abf
00000390: a54e b5be 3517 2f3f 7a95 9cbf 7f4c 9e3f
000003a0: 8173 973e 875f b2bf 32e5 953f 0572 1840
000003b0: 9fd5 8ebf d5e5 1f40 2bf6 c4bf be8f 7e3e
000003c0: 3468 8abf 1544 c5bf dc2c b13e 258f 883e
000003d0: 291e ef3e 7601 a0bf 4969 8b3f 1995 683f
000003e0: cc36 59bf 9d93 c4be 7fe8 7d3f 61bc a23e
000003f0: 0748 203f b378 0bbf 76f6 2cbf 3802 a9bf

fc.weight f4 [106, 256]
0.009927054 0.04340225 0.021534815 -0.036419276 -0.037544332 0.007837758 -0.05409429 -0.007942056
-0.06378101 -0.008757657 0.055964857 0.022916567 0.0043548746 -0.035502873 0.060280092 0.021318026
0.056594286 -0.006324079 -0.05053328 0.016413163 -0.03470697 0.019445682 0.02713748 0.04001989
-0.009708887 -0.051061798 0.03709121 0.050937846 -0.018604554 0.04623837 0.0024853693 -0.03644382
-0.024485804 -0.003731582 0.011456109 -0.046262275 -0.0631923 -0.009481872 -0.059260465 -0.011354541
0.03195503 0.033606872 0.011378242 0.024307422 0.048930276 0.008906596 0.042204704 -0.01993882
-0.022257218 -0.0076998086 0.015830869 -0.014311243 0.041330498 -0.022349168 0.02055598 -0.03430129
0.024824133 -0.021617025 -0.005255886 -0.024149083 0.024989272 -0.02944402 0.060701042 0.014613419
-0.031723253 0.048084717 -0.051981546 -0.05654519 -0.003808997 0.05042672 -0.0111626275 0.031265147
-0.0051021064 -0.0038032788 -0.027395766 0.0060864044 0.045352004 0.061142698 0.034340147 -0.0086224945
-0.05085704 -0.0288251 -0.011475302 0.056970075 -0.063757546 0.014813589 -0.0033341555 0.034856632
-0.03354008 0.017840989 -0.02596441 -0.05436268 0.016355975 -0.045714308 -0.045547612 -0.059515372
-0.03227347 0.02454222 0.03363655 -0.00525468 0.05324218 -0.06169822 -0.056612857 -0.015750699
0.033760786 0.05979457 -0.026627233 -0.048237924 0.014375253 0.05850327 0.03112467 -0.0030962187
-0.0094156265 0.03276046 0.0019305231 -0.04409337 -0.05351877 -0.038805004 0.028914517 0.020330952
-0.039816495 -0.052685477 -0.01581187 -0.05050539 -0.0054360395 0.01916448 0.056921944 0.019397236
0.010914318 -0.03369779 -0.008461965 -0.057294134 -0.05533995 0.06135634 0.011341682 0.049190965
-0.001316344 0.04728935 -0.05679108 0.02093813 0.018680263 0.014706228 0.038807437 -0.044274956
-0.051911395 0.044955213 -0.01391304 -0.0145358695 -0.012286381 0.008776037 0.013015116 0.023656595
-0.0052128574 0.03959695 0.04111094 0.051530164 -0.021985114 -0.013697206 0.026200105 0.05063819
0.053209867 -0.028695678 0.054301202 -0.022297975 0.043523356 0.0392696 -0.0011016252 0.005661469
0.062146083 0.04166939 0.01829916 0.054520827 0.018614864 -0.042664524 0.043190453 0.03404323
-0.04220535 -0.035562318 0.047988694 -0.015357377 0.04938208 0.023124807 -0.010665145 -0.024991818
0.0040083937 0.017525949 0.053943217 -0.0057868944 -0.058282252 -0.057977248 0.04004816 0.029198386
-0.045039635 -0.011079725 -0.03305396 -0.035186745 0.041770536 -0.027486997 -0.049547214 0.049200084
0.048587807 -0.026523545 0.06218506 -0.033962645 0.06365357 0.058376793 0.05577626 -0.045937933
-0.03590042 0.014716784 0.053773664 0.04130611 0.05164556 0.008133531 0.012865417 -0.022579843
0.037407745 0.03081445 -0.028940633 -0.05743072 -0.007997949 -0.037161503 0.045862623 -0.050384853
0.0022945362 -0.05154523 0.00044124585 -0.04654103 -0.045174282 0.009952618 0.028217101 0.024973692
0.035709284 0.029146155 -0.05412269 0.055534936 -0.04217098 0.063812934 -0.03867329 0.027090691
0.041444458 0.009279918 -0.019471677 -0.045230992 0.04623144 -0.065073304 0.0525666 -0.0019127507
0.000364659 0.052183796 0.057168078 0.02914924 0.057119075 0.05819398 0.029509248 0.05294189
00000000: 15a5 223c 8fc6 313d c869 b03c 612c 15bd
00000010: 16c8 19bd f169 003c f991 5dbd 661f 02bc
00000020: 9e9f 82bd 477c 0fbc 683b 653d 86bb bb3c
00000030: 56b3 8e3b 766b 11bd 42e8 763d 24a3 ae3c
00000040: 69cf 673d 383a cfbb fcfb 4ebd e674 863c
00000050: e528 0ebd 8d4c 9f3c 6c4f de3c e5eb 233d
00000060: 0612 1fbc 2d26 51bd f4ec 173d 34a4 503d
00000070: 9468 98bc 7264 3d3d 94e1 223b 1d46 15bd
00000080: 7496 c8bc 8f8d 74bb 67b2 3b3c 837d 3dbd
00000090: f76a 81bd db59 1bbc 1abb 72bd 6608 3abc
000000a0: 47e3 023d 5ca7 093d ce6b 3a3c 5c20 c73c
000000b0: 1d6b 483d f9ec 113c d7de 2c3d bc56 a3bc
000000c0: c554 b6bc ad4e fcbb bdaf 813c b479 6abc
000000d0: 2b4a 293d 9a15 b7bc 0465 a83c 827f 0cbd
000000e0: fb5b cb3c 3016 b1bc 9139 acbb 4cd4 c5bc
000000f0: 4db6 cc3c 9634 f1bc a8a1 783d 1f6d 6f3c
00000100: 3ef0 01bd 7bf4 443d 9aea 54bd ee9b 67bd
00000110: 5ea0 79bb 408c 4e3d 74e3 36bc e20f 003d
00000120: 922f a7bb 6e40 79bb 166d e0bc 7670 c73b
00000130: 06c3 393d c470 7a3d 41a8 0c3d 5d45 0dbc
00000140: 794f 50bd 9e22 ecbc e802 3cbc 7459 693d
00000150: 5193 82bd b2b4 723c d981 5abb d4c5 0e3d
00000160: 5361 09bd 4427 923c 50b3 d4bc 67ab 5ebd
00000170: f7fc 853c ed3e 3bbd 2290 3abd 64c6 73bd
00000180: 3031 04bd c40c c93c 7bc6 093d 732f acbb
00000190: 7914 5a3d 46b7 7cbd e2e2 67bd 9c07 81bc
000001a0: c048 0a3d 27eb 743d 5b21 dabc 2195 45bd
000001b0: 2e86 6b3c 20a1 6f3d 2af9 fe3c eee9 4abb
000001c0: 0044 1abc d52f 063d 9b09 fd3a 409b 34bd
000001d0: 7f36 5bbd fff1 1ebd 23de ec3c 198d a63c
000001e0: 9f16 23bd bacc 57bd e587 81bc bdde 4ebd
000001f0: ce20 b2bb d4fe 9c3c fc26 693d f4e6 9e3c
00000200: f8d1 323c b206 0abd 0ea4 0abc 41ad 6abd
00000210: 25ac 62bd c950 7b3d 76d2 393c 777c 493d
00000220: 2d89 acba 7ab2 413d c39d 68bd 7186 ab3c
00000230: 5a07 993c 64f2 703c 8cf4 1e3d a859 35bd
00000240: 0ba1 54bd f522 383d 85f3 63bc db27 6ebc
00000250: d14c 49bc 5ec9 0f3c 5a3d 553c 7acb c13c
00000260: 9ed0 aabb 6930 223d f263 283d 4b11 533d
00000270: 201a b4bc 3f6a 60bc 9aa1 d63c fe69 4f3d
00000280: 97f2 593d 3313 ebbc f06a 5e3d 3eaa b6bc
00000290: 8c45 323d 29d9 203d 6864 90ba d883 b93b
000002a0: e48c 7e3d 86ad 2a3d 1fe8 953c 3b51 5f3d
000002b0: 337e 983c ffc0 2ebd 79e8 303d ea70 0b3d
000002c0: 84df 2cbd cba9 11bd cb8f 443d 829d 7bbc
000002d0: dd44 4a3d 3c70 bd3c dcbc 2ebc a4bb ccbc
000002e0: d858 833b 9492 8f3c 90f3 5c3d fd9f bdbb
000002f0: 5fb9 6ebd 8d79 6dbd 8a09 243d 7431 ef3c
00000300: 7b7b 38bd bc87 35bc 9763 07bd fa1f 10bd
00000310: 9517 2b3d 692c e1bc 05f2 4abd 0786 493d
00000320: 0204 473d e847 d9bc c3b5 7e3d 6a1c 0bbd
00000330: ce5c 823d 811c 6f3d a675 643d 6a29 3cbd
00000340: 520c 13bd aa1e 713c c641 5c3d 9830 293d
00000350: 4b8a 533d 8042 053c 78c9 523c 5df9 b8bc
00000360: dd38 193d 966e fc3c e814 edbc 7a3c 6bbd
00000370: d409 03bc a936 18bd 72da 3b3d 5960 4ebd
00000380: ee5f 163b 1721 53bd 0457 e739 cfa1 3ebd
00000390: ab08 39bd 4e10 233c 8d27 e73c a195 cc3c
000003a0: e643 123d ebc3 ee3c c1af 5dbd 9a78 633d
000003b0: 7abb 2cbd 5bb0 823d e267 1ebd 4ced dd3c
000003c0: aac1 293d cc0a 183c 1183 9fbc 2244 39bd
000003d0: 2e5d 3d3d 2745 85bd 1350 573d 43b5 faba
000003e0: b42f bf39 adbe 553d 1329 6a3d 63ca ee3c
000003f0: b1f5 693d d05c 6e3d 61bd f13c 98d9 583d

fc.bias f4 [106]
-0.0433166 -0.00637683 -0.032717995 -0.014397187 0.02627981 0.055647567 0.010535736 -0.02019285
-0.053137023 0.047674537 0.0034138905 0.019250879 0.060299102 0.023259953 -0.0007548378 0.055743918
-0.02984351 0.035175983 0.034384444 0.008889814 0.057558313 -0.0035173274 -0.025408491 0.04130793
0.021646723 -0.0063618757 0.03998794 0.020687543 0.0038712393 -0.03373285 0.056521073 0.040122457
-0.05117589 0.0255984 -0.037921574 0.0249495 0.02643841 -0.007861555 -0.032228477 0.011720284
-0.04088426 -0.056232873 -0.03293635 -0.06336732 0.03823763 -0.05610268 0.007133608 -0.006185562
0.03589356 0.042963296 0.04857155 -0.029586907 -0.04299493 0.04108735 -0.017774705 0.035659272
-0.011744124 -0.061359238 0.03792483 -0.031054635 0.048058577 0.062127393 0.022870317 0.029792475
0.0025787419 0.04591959 -0.05263852 0.0025236546 0.053170756 -0.015934993 -0.012025324 -0.010218357
0.051635787 0.045756448 -0.035292342 0.0110291 -0.04643199 -0.011702204 -0.027251462 -0.019875553
-0.030317718 0.020956628 0.00258024 -0.05157938 0.026645675 -0.039828546 -0.05646858 -0.04119274
-0.0122892205 -0.061282873 0.044308275 -0.02600507 -0.015819333 0.026975561 -0.008843779 0.015324495
-0.0006505478 0.03716836 0.029914577 -0.05487222 -0.038807154 0.0068319053 -0.063512504 -0.0061448696
0.020504935 0.028205516
00000000: bf6c 31bd baf4 d0bb 4e03 06bd 2ee2 6bbc
00000010: c248 d73c b4ee 633d 149e 2c3c 7a6b a5bc
00000020: 35a6 59bd 6046 433d 94bb 5f3b 05b4 9d3c
00000030: 31fc 763d a88b be3c 4fe0 45ba bc53 643d
00000040: 607a f4bc b114 103d b4d6 0c3d 95a6 113c
00000050: 44c2 6b3d f682 66bb 7825 d0bc 8132 293d
00000060: 7854 b13c 4877 d0bb 65ca 233d ec78 a93c
00000070: 9eb4 7d3b 752b 0abd a482 673d 7257 243d
00000080: cf9d 51bd bcb3 d13c a753 1bbd e562 cc3c
00000090: 5d95 d83c c0cd 00bc 0202 04bd 6f06 403c
000000a0: 4176 27bd 7154 66bd 44e8 06bd bac6 81bd
000000b0: 109f 1c3d eccb 65bd 0bc1 e93b 41b0 cabb
000000c0: 2005 133d 48fa 2f3d f6f2 463d 3e60 f2bc
000000d0: 741b 30bd 364b 283d 429c 91bc 750f 123d
000000e0: 6d6a 40bc d353 7bbd 1157 1b3d 4a66 febc
000000f0: 12d9 443d 4b79 7e3d 885a bb3c 590f f43c
00000100: 1c00 293b 2e16 3c3d 7d9b 57bd e663 253b
00000110: 94c9 593d 1a8a 82bc dd05 45bc e56a 27bc
00000120: 0c80 533d 1d6b 3b3d b48e 10bd 66b3 343c
00000130: 782f 3ebd 9aba 3fbc 753e dfbc 0ed2 a2bc
00000140: dd5c f8bc 3cad ab3c 3e19 293b e644 53bd
00000150: 0848 da3c 4223 23bd 994b 67bd b8b9 28bd
00000160: ba58 49bc c003 7bbd 987c 353d 9608 d5bc
00000170: 8c97 81bc dafb dc3c 7fe5 10bc 9713 7b3c
00000180: 8689 2aba da3d 183d 6a0f f53c b1c1 60bd
00000190: 40f4 1ebd 2dde df3b d812 82bd e75a c9bb
000001a0: f7f9 a73c 410f e73c
